snake-game-AI/training_results/default/model/model.pth (torch, 16787 bytes, 4 tensors)

linear1.weight f4 [256, 11]
00000000: e812 8b3e 63ea 02bf 093e 06be cd5b 9c3e
00000010: 91a7 edbe 49fd 9a3d 420c bd3e b35e 0b3d
00000020: ac44 bfbe d29e 0ebe 7e03 acbe 71f8 ac3e
00000030: 091a a23e 5c06 c7bb 87ad 8b3e 59b1 b4be
00000040: f56c 06bf 3303 8d3e 4b20 acbd 1e31 003f
00000050: 76b2 133f f648 dfbc 381a fb3e 9830 bd3e
00000060: 145e 973d 9100 af3e a7d5 81be 9cae 9f3d
00000070: 0098 94be 5275 75bd 423e 043f a45e d23c
00000080: 8c9c 1e3f 046b 6ebe 1e38 523e cf2b 073e
00000090: 0d0b dabd 1ce5 8fbe 3659 6abe 6f64 a03d
000000a0: 7678 0bbe 5410 d4be b2f4 203e 280d c6be
000000b0: 0ae5 a83d b391 b73e f3b5 ccbe 7e38 cbbe
000000c0: afa3 9a3d e592 bd3e cbc3 17bf 7413 953e
000000d0: 2a9f 8ebe cc02 0cbf 3383 66be c142 fd3e
000000e0: 0c1b bb3d 2e13 07bf 30fc dabd 7ca6 3f3b
000000f0: 551c 77be fa22 20bd f877 b63e a010 5b3e
00000100: 0ea0 d63e d470 9a3e 5b19 17bf 1be1 d23e
00000110: f773 803e 1424 8fbe 3ce5 4c3e 3d5d 433e
00000120: e995 8c3e afe3 01bf dbcc b83d 9935 413d
00000130: 5ac4 3e3e 0d17 efbe 745c 0b3e 0f6a b9bd
00000140: f50a a93e 0d54 923e 4a6b b7be 482c febe
00000150: 368c da3e 059e 073f b2ad c2be e27c afbe
00000160: 39a2 c93d a089 bebc 959f debc a439 953e
00000170: bc23 673e 6d14 09bf b483 94be b3c1 97be
00000180: 961d 1abf 5d3f 073f fbab 9b3e e7ae 8dbc
00000190: d09a d73d bed1 a6be 9f06 d63e a5a7 303e
000001a0: a513 85be 54eb 0b3f c5c3 6cbd 8d65 d53d
000001b0: 4140 2dbf 81d3 033d 687c f13e ebbc 6d3e
000001c0: 1210 c33e 2378 00be d4af db3b f10b 59be
000001d0: c510 93bd 1f1f 013f ab45 893e fdd9 f73e
000001e0: 2944 cb3e 8e81 b83e 897d 1ebf ae32 5e3c
000001f0: e46f 25be 301d 873d 280d 0d3f bd51 e9be
00000200: bdf3 bc3e 62d7 313e 121d b7be 3236 c03e
00000210: 24a0 cf3e e85b 21be 2be9 2abf 8f6f c9be
00000220: 78af 2a3e 6f1d 0ebd b572 38be fe22 b3bc
00000230: 6a88 6abe 9cd4 5abe 4c45 36be 6398 643d
00000240: e1f8 873e 78d7 f0be 6cf0 dbbd 9850 f2be
00000250: 397c 0bbd 1666 95bb 0269 373e 1389 533e
00000260: 7afc 3e3d c68b 033e ce10 4cbe 0f29 1b3d
00000270: 4071 b33d 6517 183e 6d30 1b3e 54e6 d8be
00000280: b8c0 22bf 6240 2c3e 5c1e a63e 6027 23bf
00000290: c6f3 2bbf bf18 bfbc 8b88 14bf de41 b13e
000002a0: 80c4 d8bd 857f 3fbe 8890 d9bd 49d2 203d
000002b0: d4da ac3e b0d6 903e 4e42 e13e 0e08 273e
000002c0: fe9b 18be b964 993d 9bfc 2cbe 4874 8fbe
000002d0: e2be f63e 065e 773d a959 56be 6f93 45bf
000002e0: 97b2 cdbe 63b8 cdbe 266a d43e 7e86 803e
000002f0: d0f3 313e bef1 07bf 860a 32be 7945 8c3d
00000300: 9688 e0be 4cc9 af3c 2306 ec3d a79c e7bc
00000310: fa8c 003f b0af 7cbe 5a2f 4ebe b50e 183d
00000320: 006c afbe bd33 123e e56c 70be 329a 5cbe
00000330: f296 88be 57bf 31be 0739 4d3e c42d 36be
00000340: 6e7d 70be c751 abbe 5659 073e ed90 123f
00000350: 8dda 0c3d 3a11 67bf 94e3 e43e bff7 8c3e
00000360: 6afd 13bf ae6c bebe 8cca 953e 5e52 0ebb
00000370: abf1 d6be 3bd8 133f 13cd 803d 2b65 d83c
00000380: cf38 1dbf a5a5 9cbe a481 9cbc 6f53 193e
00000390: c182 9cbe cc6b 71be e95a 7a3d f73d b3be
000003a0: c9c4 76be b338 d0be 5623 823e 8b6e 853e
000003b0: 6ff5 513d fd1e ab3e 9230 02bf 9154 aabe
000003c0: 014f 86bd 3f0c 33be f7aa 7e3e 9975 933e
000003d0: 84ac 39bc ee4a bbbe 5f29 023e aa23 69bd
000003e0: a3a7 f9bc 7e1c 5d3d a774 d8be a72b 1fbe
000003f0: c292 cdbb 2b1c a53d 7d43 c03e 4f0a 133d
0.27162862 -0.51138896 -0.13109602 0.30538788 -0.46416906 0.075678416 0.36923414 0.03402586
-0.3735708 -0.13927773 -0.33596414 0.33783296 0.31660488 -0.006073756 0.27280828 -0.35291556
-0.52510005 0.27541503 -0.08404597 0.50074947 0.57694185 -0.02725647 0.4904344 0.36951137
0.07390991 0.3418012 -0.25358316 0.07796976 -0.29022217 -0.05992634 0.516575 0.025679894
0.6195762 -0.2328301 0.2052922 0.13200305 -0.10646639 -0.28104484 -0.22885594 0.07831656
-0.13620171 -0.41418707 0.15718344 -0.38681912 0.08246811 0.35853347 -0.39982566 -0.39691538
0.075507514 0.37026134 -0.5928313 0.29116404 -0.27855808 -0.5469177 -0.22510986 0.49464992
0.09136018 -0.5276364 -0.10692632 0.002924352 -0.24131902 -0.039095856 0.35638404 0.2139306
0.41918987 0.30164206 -0.59023064 0.41187367 0.25088474 -0.27957213 0.20009321 0.19078536
0.27458122 -0.5073804 0.09023448 0.047170255 0.1862959 -0.46697274 0.13609487 -0.09053432
0.33016172 0.2857975 -0.35824043 -0.4964316 0.42685097 0.52975494 -0.38023144 -0.34274966
0.09845395 -0.023258984 -0.027175704 0.2914554 0.22572225 -0.5354679 -0.29006732 -0.29639968
-0.60201395 0.5283106 0.30404648 -0.017295314 0.10527575 -0.32581896 0.41801926 0.17251451
-0.2599155 0.5465596 -0.057803888 0.1041976 -0.6767617 0.032184128 0.47165227 0.23216598
0.38098198 -0.12545829 0.00670431 -0.21195962 -0.07180933 0.5043811 0.26810965 0.484085
0.3970044 0.36036342 -0.619103 0.013561888 -0.16155964 0.06597364 0.550982 -0.45570174
0.36904708 0.17367318 -0.35764366 0.37541348 0.40551865 -0.15757716 -0.66762036 -0.39342925
0.16668499 -0.03469604 -0.18012507 -0.021867272 -0.229036 -0.21370167 -0.17799872 0.05580939
0.26557067 -0.4703939 -0.10739216 -0.47327113 -0.034054015 -0.0045592887 0.17911151 0.20657758
0.0466275 0.12846288 -0.19928285 0.037880953 0.08761835 0.14852674 0.15155192 -0.42363226
-0.63575315 0.16821435 0.32445037 -0.63731956 -0.67168844 -0.02332723 -0.5802085 0.34620565
-0.105843544 -0.18700989 -0.1062327 0.039263044 0.33760703 0.28288794 0.439959 0.16311666
-0.14903256 0.074899144 -0.16893236 -0.28018403 0.48192507 0.060392402 -0.2093264 -0.7717809
-0.40175316 -0.40179738 0.41487235 0.2510261 0.17378163 -0.53103244 -0.17386827 0.06849188
-0.43854207 0.02145829 0.11524608 -0.02827294 0.50215113 -0.24676394 -0.2013525 0.0371234
-0.34262085 0.14277549 -0.2347904 -0.21543196 -0.26677662 -0.17358147 0.20041285 -0.17790896
-0.23485348 -0.3346083 0.13217673 0.5725239 0.034388114 -0.9026066 0.44704878 0.27532765
-0.57808554 -0.3719229 0.29256094 -0.0021716575 -0.41981253 0.57751817 0.06289115 0.026415428
-0.6141481 -0.30595127 -0.019104786 0.14973234 -0.30568507 -0.23576277 0.061121855 -0.35008213
-0.24098505 -0.40668258 0.25417584 0.260609 0.051259454 0.3342208 -0.5085536 -0.33267644
-0.065580375 -0.1748514 0.24869905 0.28800657 -0.011332635 -0.36580604 0.12711094 -0.056918778
-0.030475443 0.05398225 -0.422765 -0.15543996 -0.0062735984 0.08062013 0.3755149 0.035898503

linear1.bias f4 [256]
00000000: 6bb0 b23d afa0 94be b83e d7be f3a1 8a3d
00000010: 9ac5 6abd 3f3b 78be db8b 513e b718 e5bd
00000020: feb3 8dbc 6ea4 fa3d 3de2 d3be 26f8 75be
00000030: c97f 70be cbdc 9ebe bc0b 853e ca1f 84be
00000040: 9ed7 51be a10b 8fbe 335e 3ebe 641b b33b
00000050: 0acb 5a3e 0f55 ce3f 66be b9be f748 3e3c
00000060: 341b 83be ee30 acbe b51f e9be b984 f4be
00000070: ca87 a93c b786 e5bd 8478 6ebe 34cf 2e3f
00000080: bd54 0cbf 1bbc 66be 0b5e 04be 148f debe
00000090: 58aa 2ebd 337d 6abe de93 29be b89b 323b
000000a0: 2288 4bbe aff4 bdbe 171e 91bc 386b 37be
000000b0: 6081 80bd b345 95be b03f babd 29a2 88be
000000c0: 6cf0 8fbe 0ba6 0b3e 874c 8cbe 7a2c b6be
000000d0: 8966 68bd be89 97be 8fba 9d3e d3f7 72be
000000e0: 86b1 353f ea2a 50be a8ee f53d 3e9d 5a3e
000000f0: ed8e 013e 50d8 1c3d 2793 af3c 119b 2abe
00000100: 2412 b0be 6f13 963d 681f 0c3e a03c d33c
00000110: a2ab 2ebe 9eb6 66be 5d2d dcbd 0e87 38be
00000120: 1867 40be caca 3e3e 6947 163e 3b64 6fbe
00000130: c756 53bc e87a d6be 6dde db3d 1d79 19bf
00000140: d7d8 5ebe 2da2 ffbe 6a76 fcbe 134a b5bd
00000150: e408 84be a0f1 65be b713 4cbe 2f88 723e
00000160: f060 15be 8d95 543e ad17 a53e d887 783d
00000170: c113 f6be ab95 8bbd d2e1 17be 5adc e73d
00000180: f537 173d 265f 89bc f6fa 85be 32b8 e0be
00000190: b511 963e b87b 7ebe b8d8 95be 8610 b8be
000001a0: 07a3 f9bc 9f92 693e 402b a9be 50f7 8cbe
000001b0: 1e89 9fbe 6152 99be b396 0cbe 3c33 f03d
000001c0: 0f97 a9be 93ef 353f 20eb a5be b2bf 54be
000001d0: 325f 793d 34f7 cdbd 89ed f2be 6847 00be
000001e0: 3444 8cbe c86d 643e c47e 5fbe d5d0 e83e
000001f0: 761e f33e 4bdc 363f a8a2 91be 7f3d 673c
00000200: 7c1c a2be 05d6 003d d04a 02bf eb62 b23e
00000210: 498a b1be 230e 1abe b1f8 b23e c141 a03e
00000220: dd1b 123f ca7d a9bd d328 8dbe fa39 aabe
00000230: 3754 84be 6638 88be 594e 8b3e a64c b83e
00000240: 155b ccbd c2f2 06bf 73e6 48be c78e e9bd
00000250: e116 553d ab96 87be f1b1 52be bb46 c43d
00000260: 401b d9be 13c0 97be f14b 1dbc 0d5d d9be
00000270: f513 563f a94a 1abe 8c8a f8be 1d15 c83b
00000280: 70fb 5a3b 9929 a8bd f8c0 a1be da98 febe
00000290: b885 02be aaad afbe e62f f93c 1752 c0bd
000002a0: d0bc 933d 6daf c43d e96a 673d bb93 283f
000002b0: 6e7a 2fbe fbaf 82be da92 15bd fbcd 0e3e
000002c0: 5c5b 62bd ae6f 55be 28c7 2ebe 7241 023e
000002d0: 472f 80be 1f4c a4bd 3c57 8bbd d153 24be
000002e0: 85cc 7b3e 6dc4 49be 16da bcbe 5556 76bd
000002f0: 7de7 673e 0d84 b73e ca7b b4be 05ac 13bf
00000300: 1d25 9c3c 270f 003d c5dc e4bd c4e3 a7be
00000310: 2e8a ccbe 8ca8 e4be c67d 12be 3be7 fcbd
00000320: b1b3 82be 9c22 84be f4a7 a3be e40a 81be
00000330: bc34 c2be 9a86 8bbe b156 99be f7c1 22bd
00000340: 92f9 033f 000d 2fbe 7432 c33d c2b7 62be
00000350: 3293 8fbd b97d d5be b5fe adbe 4337 fa3d
00000360: 9665 d1be 3353 a6be e2c8 aabe 88c7 91be
00000370: 4d56 9bbe 144a 89bd ef02 ca3d 8473 6bbe
00000380: af22 a5bd 18ca 5abd 940c e9be 3862 8f3d
00000390: 805e c5be b2f5 333e b4d5 89be fa8b cebe
000003a0: 75a4 533e 110e dbbe c050 27be ee3e 05bf
000003b0: c4f2 b4be aaf8 12bc c57d 053f 3108 47be
000003c0: 99ba babe 014c a8bd 5ed4 e13e e5bb 0d3e
000003d0: 48cf 3dbe 1729 3dbe 46c8 d83d 0e86 863d
000003e0: 399f dc3e d0dc bebe 3a1c 8cbe 4993 d6be
000003f0: ce58 c1be 9c44 93be 2c9b b23c 87f7 d7bd
0.08725055 -0.29028842 -0.42040038 0.067691706 -0.057317354 -0.2424135 0.20463507 -0.111863546
-0.017297741 0.12238394 -0.41383544 -0.24020442 -0.23486246 -0.31027827 0.25985515 -0.25805503
-0.20492408 -0.2793856 -0.18590622 0.0054659117 0.21366516 1.6119708 -0.36278075 0.011614076
-0.25606692 -0.3363108 -0.45532003 -0.4775751 0.020694632 -0.112073354 -0.2328816 0.68284917
-0.548168 -0.22532694 -0.129265 -0.43468535 -0.04264292 -0.22899322 -0.16560313 0.002725346
-0.1987615 -0.3710074 -0.017714543 -0.17911994 -0.06274676 -0.2915474 -0.09094179 -0.26686218
-0.28113115 0.13637559 -0.27402136 -0.35580808 -0.05673841 -0.29597276 0.30806395 -0.2372735
0.70974004 -0.2032887 0.12008411 0.21349046 0.12652178 0.03829223 0.021432472 -0.16660716
-0.3438884 0.073279254 0.13683856 0.025785744 -0.1705766 -0.225306 -0.1075084 -0.1802027
-0.18789327 0.18632045 0.14675678 -0.23378079 -0.012899107 -0.41890645 0.10735784 -0.5995043
-0.21762405 -0.49928418 -0.49309093 -0.08852019 -0.25788033 -0.22455454 -0.19929396 0.23684762
-0.1458776 0.20760174 0.32244626 0.060676426 -0.48061946 -0.06815656 -0.14832237 0.113213256
0.0369186 -0.016769003 -0.2616803 -0.4389053 0.29310384 -0.24851882 -0.29266906 -0.35950106
-0.030473245 0.22809838 -0.3304081 -0.27532434 -0.311593 -0.29945663 -0.13729362 0.11728522
-0.3312306 0.71068686 -0.3240595 -0.20776251 0.0608818 -0.10056916 -0.4744685 -0.1252724
-0.27395785 0.22307503 -0.21825701 0.45471826 0.47484177 0.7142989 -0.2844441 0.014113783
-0.31662357 0.031454105 -0.50895405 0.34841093 -0.34675816 -0.15044455 0.3495536 0.31300166
0.57073766 -0.082759455 -0.2757021 -0.33247358 -0.258455 -0.2660553 0.27208212 0.35995978
-0.0997831 -0.5271417 -0.1961916 -0.11404186 0.052023772 -0.26482138 -0.20575692 0.09583803
-0.42403603 -0.29638728 -0.009600625 -0.42453805 0.836242 -0.15067543 -0.48543203 0.0061060325
0.0033414029 -0.08211059 -0.31592536 -0.4972599 -0.12746322 -0.34312183 0.030418348 -0.093906574
0.072137475 0.09603772 0.05649844 0.6585042 -0.17136547 -0.25524887 -0.036517 0.13945763
-0.05526291 -0.20843384 -0.1706816 0.12720278 -0.2503607 -0.080223314 -0.06803748 -0.16047598
0.24589737 -0.19703837 -0.36885136 -0.060140926 0.226469 0.35842934 -0.35250694 -0.57684356
0.019060666 0.03126445 -0.11174921 -0.3279096 -0.39949173 -0.4465984 -0.14305791 -0.12348791
-0.2552772 -0.25807655 -0.31964076 -0.2520362 -0.37930858 -0.2725113 -0.29948953 -0.03973576
0.5155269 -0.17094803 0.095311075 -0.2214041 -0.07010497 -0.4169748 -0.3398339 0.122175716
-0.40897816 -0.3248535 -0.33356386 -0.28472543 -0.3033928 -0.067035824 0.09863841 -0.22993284
-0.08063256 -0.053415388 -0.4551741 0.070011556 -0.3854866 0.17574194 -0.26920855 -0.4034117
0.20668204 -0.4278417 -0.16339397 -0.5204915 -0.35341465 -0.008970419 0.52145034 -0.19436719
-0.36470488 -0.082176216 0.44107336 0.13841207 -0.18536103 -0.18472706 0.10585074 0.06568538
0.43090227 -0.37277842 -0.27365285 -0.41909245 -0.37763065 -0.28763282 0.021802507 -0.10545259

linear2.weight f4 [3, 256]
00000000: 2341 ad3d b564 e2be fd5b a0be 963a 423d
00000010: e29f 393d 44bf 38be 2d91 973e 8fd8 d33e
00000020: d8d7 0bbf 084a 8e3e 7d93 34be 0f20 9ebe
00000030: 6e1e 5abe 8321 6fbc 8f92 e53e 4867 bbbc
00000040: 8ddb afbe fc58 39be 8e74 f8bd d3b3 b73e
00000050: fbf6 193e 2835 ea3e 38fb 1b3d bcab 0cbd
00000060: 60ac cfbe 7ce6 d23b bc81 4cbe 9c06 46be
00000070: 9453 023e 01d2 213c 017c b53d 7811 063f
00000080: c9b8 a0bd 660b 463d 7d75 e83d 9754 4cbe
00000090: 5d11 ee3e 0ad6 2fbe 57e8 cd3d 0538 873b
000000a0: 1400 3abe 4116 073c 9218 cebd 3811 37bc
000000b0: 117c f7be d2e2 37bd c8a9 86bc 57ef a8bd
000000c0: 9b80 5ebb 0deb 823d e4c0 afbc eab2 b1bc
000000d0: 99b2 c63c d561 bbbe ce0d a0be 0397 c8be
000000e0: 59a4 4c3e 4781 a7be 7f3f a83e 428c d03e
000000f0: cad8 1a3e d36e bebd 0e80 28be cd22 4ebf
00000100: 1a92 2abe 8f85 853d 7e55 2cbf e23e 3cbe
00000110: 3ac2 0dbf bca5 e23e 848d 0bbe dd11 65be
00000120: ca96 84bd fa6c 723e 5667 273e 00ae 2bbb
00000130: bc66 453e abb5 a3bc 66df b73e c39c 2dbe
00000140: 4b5e ab3d 10e7 1dbe 0c52 96bd bee5 623e
00000150: 62be 50bd 9eaf 11be 42bb eebe e98d be3e
00000160: 903e f23c 9fd0 d53e a8b6 023e 9b90 543b
00000170: 51c1 dfbc 270a 21be e953 adbd 111c d03e
00000180: 7250 c83e 1545 5f3e 995d c2bd f402 8bbd
00000190: db8e 443e f9f9 a53d 16dd 4abe ca0a 80bb
000001a0: a5bc 703d ee13 913e a7b9 db3c a2d3 ef3b
000001b0: 6ee6 31be 44cd f93b 15ff ecbd 3635 8d3d
000001c0: aa6b 05bf 3a75 c63e 4f25 b9bb 4289 11bf
000001d0: 65f7 ca3e daa5 8cbd 9a71 863b aeab a0be
000001e0: dc55 edbe 844b 8c3e 2f49 c6bb 3208 d03e
000001f0: e648 903e accb bc3e 5476 83bc b6bd 763e
00000200: da66 133c d365 3fbe e07d 1ab9 e1fa 813e
00000210: 3374 d13b fea7 a1be 49af 643e 27e2 0b3e
00000220: e310 cc3e a9c5 31bf ca7d 413d cd2d 21be
00000230: 58d1 b1bd c766 f9be 0f8b a43e 6ac5 eb3d
00000240: fbfd 7bbe 558f 10bd fb90 cebd c167 b2bd
00000250: d620 82bd 0068 21bc 2f61 11be a651 483c
00000260: ba82 a13c f936 7fbc 6d81 7f3e 0db4 a2bc
00000270: a63a c23e ff53 043e 629b 7fbc c35f 003e
00000280: 2e3b 90be dbb0 353e 3aec 953c 427a 1a3d
00000290: 689e 83be 8d49 e23c 186c 823d 6f29 87bc
000002a0: 5ee5 843e 8ad7 ecbe 571d 803d 89d2 943e
000002b0: e266 2bbb 3e09 aebe 5ed8 44be f1a8 b63d
000002c0: 6975 a5bc f9a7 f4bb 1275 d73e a420 c33d
000002d0: adc4 c13b 9a12 c4ba 21a6 39bb 05ef 9dbe
000002e0: 0b80 003f e690 a6bc a38d 46bb 31d7 523e
000002f0: 2cf6 ad3d 77f1 d63d ddad 87be c9f9 8c3b
00000300: 5810 443e 442b ac3d 4214 01be 69c7 293c
00000310: 288d 86bc 76e8 6d3d 0e5b 06bf abd2 bbbc
00000320: 349c 52bd fb1f 0b3d b574 7cbe 1b25 c9bd
00000330: fee5 1fbe 28c5 60bd b141 87be b01a 873d
00000340: 3eff dd3e 4487 65be d2db d3be 598f aabc
00000350: 585d 3fbe d239 a8bd 63a0 6c3d 9c72 c2be
00000360: f4f5 67bb 0a83 38be eba2 c1bd 6905 afbe
00000370: ab9d 2c3c 5f5c a3be 3fa0 9c3e 29d8 32bd
00000380: 84f0 c73d 4af4 0abe 7e4f adbc 45d2 063e
00000390: fe7e 2bbd 4552 4d3e 64f3 713d 7f83 783d
000003a0: f4ae 7c3e ae36 aabc 3a72 363b feec 8b3c
000003b0: 7b0a bfbd d6f5 8cbe 0120 f63e 1473 0fbf
000003c0: f9b3 9d3c a4d9 d13d 57f3 b43e f1a3 943d
000003d0: ce87 c6bd f3ea 93bd f531 a53e a2e9 ebbe
000003e0: cc70 d33e 8dd7 b4be ee71 5eb9 8382 143d
000003f0: 86c7 8ebd 9431 14bf baa4 8a3e 41da 9ebd
0.084596895 -0.44217458 -0.3132018 0.047419153 0.04531849 -0.18041712 0.29602948 0.4137616
-0.54626226 0.27790856 -0.17634387 -0.30883834 -0.2130067 -0.014595392 0.44838378 -0.022876397
-0.3434719 -0.18100351 -0.12131606 0.35879382 0.15035622 0.4574368 0.038081378 -0.034343466
-0.405612 0.0064361673 -0.19971365 -0.19338459 0.12727195 0.009876729 0.088615425 0.52370405
-0.07847745 0.048350714 0.11350534 -0.19954143 0.46497622 -0.17171493 0.10054081 0.004126551
-0.18164092 0.008245052 -0.1006328 -0.011173539 -0.48336843 -0.044894047 -0.01643838 -0.082487755
-0.0033951167 0.06392489 -0.021454282 -0.021691758 0.024255084 -0.36598077 -0.31260532 -0.39177713
0.19984569 -0.32715818 0.32860944 0.40732008 0.15121761 -0.09298482 -0.16455099 -0.8052185
-0.16657296 0.06519615 -0.6731795 -0.18383363 -0.5537449 0.4426707 -0.13628203 -0.22370096
-0.06474073 0.23674384 0.16348013 -0.0026196241 0.19277471 -0.019984087 0.35912627 -0.16954331
0.08367594 -0.15420175 -0.07339868 0.22157952 -0.050962813 -0.14227149 -0.4662724 0.37217644
0.029570848 0.41760728 0.1276499 0.0032434824 -0.02731386 -0.15726529 -0.0846327 0.40646413
0.39123875 0.21803696 -0.094905086 -0.06787673 0.1919512 0.08104319 -0.198109 -0.003907536
0.058773655 0.28335518 0.026821924 0.00731893 -0.17373058 0.0076233465 -0.115720905 0.06894915
-0.5211741 0.38761312 -0.0056501995 -0.56850064 0.39641872 -0.06867571 0.004102898 -0.3138098
-0.46354568 0.27401364 -0.0060512046 0.40631253 0.28180617 0.3687414 -0.016047634 0.24095806
0.00899669 -0.18691187 -0.00014733477 0.25386718 0.006392026 -0.3157348 0.22332491 0.13660489
0.39856634 -0.6944223 0.047239102 -0.15740128 -0.08682507 -0.48711225 0.32137343 0.11512263
-0.24608605 -0.035292942 -0.100862466 -0.08711196 -0.06353919 -0.009851456 -0.14197229 0.012226498
0.019715656 -0.015577071 0.24951716 -0.019861246 0.3793537 0.12922667 -0.015601011 0.1253653
-0.2817015 0.17743246 0.018301118 0.03771425 -0.25706792 0.027622962 0.063682735 -0.01649925
0.25956243 -0.46258193 0.06255596 0.29066876 -0.0026153852 -0.33991426 -0.19223163 0.08918942
-0.020197587 -0.007466313 0.42081505 0.0952771 0.005913338 -0.0014959157 -0.002832778 -0.3084642
0.5019538 -0.020332765 -0.0030296824 0.20589902 0.08494219 0.104952745 -0.26499835 0.0043022376
0.1914686 0.0840669 -0.12605384 0.0103624845 -0.01642473 0.05808302 -0.5248269 -0.022927603
-0.0514185 0.033966046 -0.24653895 -0.098215304 -0.15615079 -0.054875523 -0.26417306 0.06596887
0.43358797 -0.22414881 -0.41378647 -0.020820307 -0.18687952 -0.08214153 0.057770144 -0.37978065
-0.0035394402 -0.18018737 -0.09454902 -0.34183815 0.010535638 -0.3190641 0.30591008 -0.043663178
0.097626716 -0.13569751 -0.021156069 0.13166149 -0.041869156 0.20050915 0.059070006 0.06067228
0.24676114 -0.020778026 0.002783908 0.01708078 -0.09328171 -0.27531308 0.48071292 -0.5603497
0.019250857 0.1024659 0.35341904 0.07257832 -0.096938714 -0.072225474 0.32264677 -0.46076685
0.41296995 -0.35320702 -0.00021214012 0.03625728 -0.0697165 -0.5788815 0.270788 -0.077564724

linear2.bias f4 [3]
00000000: 918a b83e 53a7 093d ace3 d53d
0.36043218 0.03360684 0.104438156
