snake-game-AI/pretrained_models/fast_forward_1000+/model_ff.pth (torch, 16997 bytes, 4 tensors)

linear1.weight f4 [256, 11]
0	0xbd988eb1	-0.07449091
1	0x3e6a4824	0.22879082
2	0xbe0e3648	-0.13887894
3	0x3e4924cf	0.19642948
4	0xbe2e38c7	-0.17013846
5	0x3d4f6bf0	0.050640047
6	0xbf128e77	-0.57248634
7	0x3ec9f0df	0.39441583
8	0xbe9faa12	-0.3118444
9	0xbec1f548	-0.37882447
10	0x3cd36976	0.025807124
11	0x3d50c9a6	0.050973557
12	0xbe4c9500	-0.19978714
13	0x3cf88130	0.030335039
14	0xbc0b58e6	-0.008505082
15	0xbe7ddcef	-0.2479131
16	0xbe67f942	-0.22653678
17	0xbe39306e	-0.1808488
18	0xbe1738c5	-0.1476775
19	0xbdf03607	-0.11729055
20	0xbe5ae6df	-0.21377133
21	0xbe2cc322	-0.16871312
22	0x3df63314	0.12021461
23	0xbd306786	-0.043067478
24	0x3c5f5606	0.013631349
25	0xbeb2c883	-0.34918603
26	0xbe89e5d2	-0.2693315
27	0x3ee5076c	0.44732225
28	0x3e93ab53	0.28841648
29	0x3e974364	0.29543602
30	0x3e782eea	0.24236646
31	0xbf1fea59	-0.6246696
32	0xbe7c1565	-0.24617536
33	0x3f07468e	0.5284203
34	0xbd631a2b	-0.055444878
35	0x3d0f4f91	0.03498799
36	0x3e3b384a	0.18283191
37	0xbee29b94	-0.44259322
38	0xbecb036f	-0.39651057
39	0x3e50fcad	0.20408888
40	0xbe5463f5	-0.20741256
41	0x3efe1129	0.49622467
42	0x3e9843a0	0.29739094
43	0xbe467e4c	-0.19384116
44	0xbe6525b6	-0.22377667
45	0xbd13328f	-0.03593689
46	0xbd61b9e8	-0.055108935
47	0x3e91fb53	0.28512058
48	0xbe93237b	-0.28738007
49	0xbc2b817e	-0.010467885
50	0x3ee0536a	0.4381364
51	0xbd05ada0	-0.032636285
52	0xbef4d98f	-0.47822234
53	0x3e7b7391	0.24555804
54	0xbea547ed	-0.32281438
55	0x3cc1cfd7	0.023658676
56	0x3ce07a56	0.027402084
57	0xbec468ad	-0.3836111
58	0xbd82992a	-0.0637687
59	0x3d9d54f4	0.07682219
60	0xbe8d6bd8	-0.2762134
61	0xbeaf607e	-0.34253305
62	0xbe1e7c61	-0.15477134
63	0xbeb80940	-0.35944557
64	0x3e54aeba	0.20769778
65	0x3e02ee86	0.12786302
66	0xbe5f5079	-0.21808042
67	0xbe524af5	-0.20536406
68	0x3c37c3ed	0.011216146
69	0xbe8e30eb	-0.27771696
70	0x3ee9256b	0.4553636
71	0x3ecef730	0.40422964
72	0xbe96645d	-0.29373446
73	0xbec27a73	-0.37984046
74	0x3e7f1ab3	0.24912529
75	0x3d7142a5	0.058901448
76	0xbed7db1b	-0.42159352
77	0x3dc93d01	0.09826089
78	0x3f16fe3d	0.58981687
79	0x3c88ef7e	0.016715761
80	0xbe920a24	-0.28523362
81	0xbd06aeb7	-0.032881465
82	0xbee71a7d	-0.45137396
83	0xbdc050d2	-0.09390415
84	0xbda42e63	-0.0801666
85	0x3dff0c76	0.124535486
86	0x3e37f4e7	0.17964517
87	0xbd8d9523	-0.06913211
88	0x3f0a67d6	0.5406469
89	0x3cf8caa8	0.030370072
90	0xbdc63d9d	-0.096797206
91	0x3e2b3e9a	0.167231
92	0xbef33e6d	-0.47508565
93	0x3ea4cd1d	0.3218774
94	0x3d95058e	0.0727645
95	0xbc805f92	-0.015670571
96	0x3f1243d2	0.57134736
97	0xbeb8eadb	-0.3611668
98	0x3dc96a7f	0.09834766
99	0x3d34f659	0.044180248
100	0xbe6cf0e6	-0.2313877
101	0xbd990728	-0.07472068
102	0x3f1d5901	0.61463934
103	0xbeb48f8f	-0.35265777
104	0x3c37aff1	0.011211381
105	0x3e39c776	0.18142495
106	0x3e858f80	0.26086044
107	0xbf198992	-0.5997554
108	0xbec185a7	-0.3779728
109	0xbef0e7eb	-0.4705194
110	0x3ec91af5	0.3927838
111	0x3d6510d8	0.055924267
112	0x3ec0f0c5	0.37683693
113	0xbeaf1f30	-0.34203482
114	0xbead389a	-0.33832246
115	0xbed8078c	-0.42193258
116	0x3e0290c6	0.12750539
117	0x3e36af0a	0.1784021
118	0x3e0fe0bb	0.14050572
119	0x3eb8839e	0.36037916
120	0xbe17aa7c	-0.14811128
121	0xbcf2d632	-0.029643152
122	0xbf0bc05f	-0.5459041
123	0x3dcd5189	0.10025317
124	0x3eabac61	0.33529952
125	0x3db14bcb	0.086570345
126	0x3ed5224c	0.4162773
127	0xbc9b4031	-0.018951507
128	0xbe8f4aae	-0.27986664
129	0xbe7db1c1	-0.24774839
130	0xbd2ade06	-0.041715644
131	0x3e0308f3	0.12796383
132	0x3f0119f3	0.5043022
133	0x3da85a3a	0.08220334
134	0x3d7eb200	0.062181473
135	0xbe893d15	-0.26804414
136	0x3d8cf5f3	0.068828486
137	0xbe730a55	-0.2373441
138	0xbd595a3d	-0.053064574
139	0x3ee2c243	0.44288835
140	0x3d5a8407	0.053348567
141	0x3ea84f9b	0.32873234
142	0x3e26560d	0.16243763
143	0xbe793c01	-0.24339296
144	0xbe9db9f4	-0.30805933
145	0xbe13f240	-0.1444788
146	0xbee01d40	-0.43772316
147	0x3f0816b1	0.53159624
148	0x3e7e1783	0.24813657
149	0xbf1bd5ae	-0.60872924
150	0xbf10df9f	-0.5659122
151	0x3dd2c2f0	0.102910876
152	0x3ea34963	0.31891927
153	0xbe40f888	-0.18844807
154	0xbe53cca1	-0.20683528
155	0x3d0eedc2	0.034894712
156	0x3f1aab83	0.60417956
157	0x3ec8726e	0.39149803
158	0x38b6e7a8	8.7215856e-05
159	0xbe363848	-0.17794907
160	0x3cc732c3	0.024316197
161	0x3e8fc114	0.28076994
162	0xbe4684cc	-0.19386595
163	0x3d4214f7	0.047383275
164	0xbe82925f	-0.25502297
165	0xbde86d4a	-0.1134897
166	0x3f2c7427	0.67364734
167	0x3d16ac5d	0.036785472
168	0xbdd8bb0a	-0.1058255
169	0xbd34cf7a	-0.044143178
170	0xbebf1a71	-0.3732486
171	0xbe9ae081	-0.30249408
172	0x3e955cf0	0.29172468
173	0x3c637ffb	0.013885493
174	0x3e61b698	0.2204231
175	0x3d5e7cd4	0.054318264
176	0xbdadbb83	-0.08483031
177	0x3ebd13db	0.3692921
178	0xbf050225	-0.519564
179	0xbeb5a77c	-0.35479343
180	0x3e88f300	0.26747894
181	0x3e55a399	0.20863189
182	0xbe0606b9	-0.13088502
183	0x3e98783d	0.29779235
184	0x3c4fc709	0.012681731
185	0x3e800b9e	0.25008863
186	0xbd64481f	-0.055732843
187	0xbdb9ed7d	-0.090785004
188	0x3dcdce5e	0.10049127
189	0xbd921894	-0.07133594
190	0xbe7db8ef	-0.24777578
191	0x3e8d8249	0.27638462
192	0x3ec25b11	0.37960103
193	0xbe92ef90	-0.28698397
194	0xbec36db5	-0.38169637
195	0x3e9907fa	0.29888898
196	0xbca70d6f	-0.020392148
197	0xbe96e663	-0.29472646
198	0x3d4a7d47	0.04943588
199	0xbe53d892	-0.20688084
200	0x3f2e80a0	0.68165016
201	0x3e05feb3	0.13085441
202	0xbe4ab6cf	-0.19796298
203	0x3dc36c14	0.09542099
204	0xbd4c43cb	-0.04986934
205	0xbe0f8b63	-0.14018016
206	0x3df288fc	0.11842534
207	0x3e5faa4c	0.21842307
208	0xbd3638fd	-0.044487942
209	0x3cd80929	0.026371555
210	0xbec48ac3	-0.38387117
211	0x3ea84430	0.32864523
212	0xbea309f8	-0.31843543
213	0xbd88db5d	-0.06682465
214	0x3ea45a0b	0.32099947
215	0x3f12651f	0.5718555
216	0xbe44f3a7	-0.19233571
217	0xbf0958d3	-0.5365116
218	0xbecaaead	-0.39586392
219	0x3e937057	0.28796646
220	0x3ef91a33	0.486528
221	0x3e164b11	0.14677073
222	0xbf19fd51	-0.60152155
223	0x3ece8506	0.40335864
224	0xbe98235e	-0.29714483
225	0xbe4d8950	-0.20071912
226	0x3e6b86c0	0.23000622
227	0xbec3150f	-0.38102004
228	0x3e928260	0.28615093
229	0x3dbcd354	0.09219995
230	0xbd7a4459	-0.061100338
231	0xbe5fef0f	-0.21868537
232	0xbd0f5fb5	-0.035003383
233	0xbe9b3b50	-0.3031869
234	0x3e3f3b6e	0.18675014
235	0xbf04981e	-0.5179461
236	0xbe91d4f3	-0.2848278
237	0xbe0689f1	-0.13138558
238	0xbe988774	-0.29790843
239	0x3df091e6	0.11746578
240	0x3eb5f267	0.355365
241	0xbe890b8e	-0.26766628
242	0x3d2facc2	0.042889364
243	0x3ebfb800	0.37445068
244	0xbd7a475d	-0.061103214
245	0xbe29899d	-0.16556402
246	0x3c072665	0.0082489
247	0xbe4403d9	-0.19142093
248	0xbdd12f05	-0.102140464
249	0x3e792827	0.24331723
250	0xbcbbbd39	-0.022917377
251	0x3e656fd5	0.22405942
252	0x3e608ab4	0.21927911
253	0xbe9b17c3	-0.30291566
254	0xbe2ed567	-0.17073594
255	0xbd3cdd14	-0.046109274

linear1.bias f4 [256]
0	0x3e097fac	0.13427609
1	0x3d03076f	0.03198951
2	0x3c0d765d	0.008634177
3	0xbd1885ab	-0.03723685
4	0x3be56b21	0.007001296
5	0x3d7fbbc1	0.062434915
6	0x3f118375	0.5684121
7	0x3ca30c10	0.019903213
8	0xbe3e4093	-0.1857932
9	0xbd70ce3a	-0.058790423
10	0xbe74d77e	-0.23910329
11	0x3f2b1832	0.66833794
12	0xbe5dd856	-0.21664557
13	0x3ef011a5	0.46888462
14	0xbe1e753d	-0.1547441
15	0xbd4b6c84	-0.049664035
16	0xbe4ff825	-0.20309503
17	0x3f06faa9	0.5272623
18	0xbccf5650	-0.025309712
19	0xbe11219e	-0.1417298
20	0xbdf0f403	-0.117652915
21	0xbc80eb06	-0.015737068
22	0xbeb60f64	-0.35558617
23	0xbca0cee5	-0.019629905
24	0x3eef65e5	0.46757427
25	0x3ef9ecd7	0.48813507
26	0xbe799225	-0.24372156
27	0x3d3d025d	0.046144832
28	0xbe9c94a4	-0.30582154
29	0xbcf33dfe	-0.029692646
30	0xbe38a399	-0.18031158
31	0x3d5e79eb	0.05431549
32	0xbe90eab3	-0.2830406
33	0xbe7c9d1a	-0.24669304
34	0xbd448a8e	-0.0479837
35	0x3d8f5096	0.069977924
36	0x3e28f594	0.1649993
37	0xbe1f5aba	-0.15561953
38	0xbd5305bf	-0.05151915
39	0xbce86bd9	-0.028371738
40	0x3f87b399	1.0601684
41	0xbe833d5a	-0.25632745
42	0x3ee0ae6f	0.43883082
43	0x3e4a3d66	0.19749984
44	0x3fa2dc47	1.2723473
45	0x3cd8b8d3	0.026455319
46	0x3dd22a33	0.10261955
47	0xbedf3ea7	-0.43602487
48	0xbe2c9978	-0.16855419
49	0xbe60532c	-0.21906728
50	0xbd2ac863	-0.04169501
51	0xbdb0ab2e	-0.086264
52	0xbde91b2c	-0.11382136
53	0xbeb07dc7	-0.3447096
54	0x3e8dfd8d	0.27732506
55	0xbd0805cb	-0.03320865
56	0xbe23d7b4	-0.16000253
57	0xbdca8080	-0.09887791
58	0x3e10e37d	0.1414928
59	0xbe812413	-0.25222835
60	0xbe5c6c55	-0.215257
61	0xbd8802c3	-0.06641152
62	0xbe92331e	-0.28554624
63	0x3e0a26cc	0.13491362
64	0x3dea0b25	0.11427907
65	0x3d532332	0.051547237
66	0xbc8b5fe3	-0.017013496
67	0x3e9a80a4	0.3017627
68	0x3ef38f0a	0.47570068
69	0xbd89e9ad	-0.06734023
70	0xbe0c3640	-0.1369257
71	0xbda5e3cf	-0.08100092
72	0x3cb1d894	0.021709718
73	0xbe7448cb	-0.23855893
74	0xbe11a31b	-0.14222376
75	0x3dc609eb	0.096698605
76	0xbda2e5fb	-0.079540215
77	0x3ebb3d1a	0.36570054
78	0xbdb3c4bd	-0.08777759
79	0xbe65e6e6	-0.22451362
80	0x3c76011d	0.015014914
81	0x3e205ba6	0.15659961
82	0x3e10bf66	0.14135513
83	0xbe8664c0	-0.2624874
84	0xbe82b383	-0.25527582
85	0xbebcd963	-0.36884603
86	0xbefd495c	-0.4947003
87	0x3f4b627a	0.7944714
88	0xbe17a345	-0.14808376
89	0xbe55a9c0	-0.20865536
90	0xbcaabd7c	-0.020842306
91	0xbe181d80	-0.14855003
92	0x3ebf5d81	0.37376025
93	0x3f5b4e64	0.8566649
94	0xbe0dd867	-0.13852082
95	0x3db0c7c8	0.08631855
96	0xbe695c02	-0.22789004
97	0xbe398eb4	-0.18120843
98	0x3ddb99bd	0.107226826
99	0xbdca4fd8	-0.0987851
100	0x3ef68a5c	0.48152435
101	0x3e2b6e76	0.16741356
102	0x3f75dc04	0.9603884
103	0xbe9b3b63	-0.30318746
104	0x3e2f49e4	0.17118031
105	0x3e12f9a9	0.1435305
106	0xbe4a1eb8	-0.19738281
107	0xbdea3550	-0.1143595
108	0xbd0fc53f	-0.035100218
109	0x3db90443	0.09034016
110	0xbdbcd9f8	-0.09221262
111	0xbe2ffb5c	-0.1718573
112	0x3ee1e1ef	0.44117686
113	0xbdccaf77	-0.09994405
114	0xbe988b2f	-0.2979369
115	0x3eb3f4dd	0.35147753
116	0xbd26010d	-0.040528346
117	0xbe9b6077	-0.30347034
118	0xbd26abd6	-0.04069122
119	0xbe002779	-0.12515058
120	0xbe297428	-0.16548216
121	0x3cdfdfb4	0.02732835
122	0x3d4f938f	0.050677832
123	0x3e105209	0.14093794
124	0x3e1eaeb8	0.15496337
125	0xbdfab7d6	-0.12242095
126	0xbd5a19c0	-0.053247213
127	0x3f263d23	0.6493704
128	0xbeaa0e08	-0.3321383
129	0xbe5a54b2	-0.21321371
130	0x3d1eded4	0.038786724
131	0xbe7a8060	-0.24463034
132	0xbe3be2a0	-0.1834817
133	0x3e876d40	0.2645054
134	0xbca066d2	-0.019580279
135	0xbe464071	-0.1936052
136	0xbeb4e801	-0.35333255
137	0xbd199f7d	-0.037505616
138	0xbe89edf2	-0.2693935
139	0x3eb46b94	0.35238326
140	0xbe117031	-0.14202954
141	0xbe90c72f	-0.28276965
142	0xbcbec56a	-0.023287494
143	0xbd4a833a	-0.049441554
144	0x3cb0a70b	0.021564027
145	0xbd935ef8	-0.07195848
146	0x3d509db8	0.050931662
147	0xbe72bb95	-0.2370437
148	0xbd664354	-0.056216553
149	0x3e59769d	0.21236654
150	0x3d695553	0.056966137
151	0xbe976fff	-0.29577634
152	0x3de65a1b	0.11247655
153	0x3e6431cb	0.2228462
154	0x3ea43c52	0.3207727
155	0xbb09da7f	-0.0021034775
156	0xbe19aa08	-0.15006268
157	0xbc9df164	-0.019280143
158	0x3e9702d2	0.2949434
159	0x3e3ab76c	0.18234032
160	0xbe140411	-0.14454676
161	0xbe054e4c	-0.13018149
162	0x3eacf388	0.3377955
163	0x3f90bc88	1.1307535
164	0xbe2fc69c	-0.17165607
165	0xbcaee699	-0.021350192
166	0xbe939223	-0.2882243
167	0xbe4b66fb	-0.19863503
168	0xbe18c485	-0.14918716
169	0xbd6fa2e7	-0.058504965
170	0xbe3f29dd	-0.18668313
171	0xbc8a72f1	-0.016900511
172	0x3d277250	0.0408805
173	0xbd5004e5	-0.050785918
174	0xbe63004e	-0.22168085
175	0x3eda189e	0.42596906
176	0xbd51ceee	-0.051222734
177	0xbe263029	-0.16229309
178	0x3da5c954	0.08095041
179	0x3e8039af	0.2504401
180	0xbbe4b027	-0.006979007
181	0x3e2b4e9d	0.16729207
182	0xbe95a0bb	-0.2922419
183	0x3e09b474	0.13447744
184	0xbdedd323	-0.11612537
185	0xbdccd2fc	-0.100011796
186	0x3e11a297	0.1422218
187	0xbd572d98	-0.052533716
188	0xbe48adba	-0.19597521
189	0x3ed2c4fb	0.4116591
190	0xbea954b5	-0.3307244
191	0xbe8ad8de	-0.27118582
192	0xbda6e135	-0.081484236
193	0xbdd83893	-0.10557666
194	0x3e31fd77	0.17381845
195	0xbe29e64c	-0.16591758
196	0xbee0f95b	-0.43940243
197	0x3e0a1345	0.13483913
198	0x3ec8a38a	0.3918727
199	0xbe8357e7	-0.25653002
200	0x3e12fa5e	0.1435332
201	0x3e928e27	0.2862408
202	0xbdf22a53	-0.11824479
203	0xbe900f58	-0.28136706
204	0x3e446d2d	0.19182272
205	0xbdcb91c9	-0.09939916
206	0x3f20fc17	0.6288466
207	0xbecfb263	-0.40565786
208	0xbe8d40d2	-0.27588516
209	0xbeaa87a0	-0.333066
210	0x3f80e2ab	1.0069174
211	0xbed511e0	-0.416152
212	0xbe01bf5c	-0.12670654
213	0x3fd605da	1.6720536
214	0x3e1f5b06	0.15562066
215	0x3df338f9	0.11876101
216	0x3f507283	0.8142473
217	0xbcddb359	-0.027063059
218	0x3cc89d15	0.024488965
219	0x3e0f025e	0.13965747
220	0xbc402c3d	-0.011729297
221	0x3e48e3c3	0.19618134
222	0x3eb49868	0.35272527
223	0xbd15f4f0	-0.036610544
224	0xbcc53459	-0.024072813
225	0x3d0ee2de	0.034884326
226	0xbdb35cd2	-0.087579384
227	0xbe7e6b74	-0.24845678
228	0x3ef1a4a5	0.47195926
229	0xbe6df1d2	-0.23236778
230	0xbeb95d87	-0.36204168
231	0x3e685489	0.22688498
232	0x3ec53c8a	0.3852275
233	0xbe3db25a	-0.18525067
234	0xbeb3106b	-0.34973463
235	0x3e3f4baa	0.18681207
236	0xbdf4292d	-0.11921916
237	0x3d9f406c	0.07775959
238	0x3dfbd3ca	0.12296255
239	0x3e89cfb8	0.2691629
240	0x3f044064	0.5166075
241	0xbddc58ec	-0.10759148
242	0x3f09a7e3	0.537718
243	0x3b830e57	0.003999512
244	0x3e892b45	0.26790825
245	0x3fa95dd6	1.3231761
246	0xbea2fb4e	-0.31832355
247	0xbea016c1	-0.3126736
248	0x3e9dca9e	0.30818647
249	0x3e873153	0.2640482
250	0xbd83b846	-0.06431632
251	0x3f0f21d7	0.5591101
252	0xbda19c54	-0.07891145
253	0xbe08e48e	-0.13368437
254	0xbeb01adc	-0.34395492
255	0x3d7d2564	0.061803237

linear2.weight f4 [3, 256]
0	0x3dfd6194	0.12372127
1	0x3c1ee428	0.009697951
2	0xbea4588f	-0.32098815
3	0xbf043772	-0.516471
4	0x3df4a4f4	0.11945525
5	0xbb8a6922	-0.0042239586
6	0x3ea0b66c	0.31389177
7	0xbd19d7bf	-0.037559267
8	0xbec8bc0b	-0.39205965
9	0x3eca6f48	0.39538026
10	0xbe6524c2	-0.22377303
11	0x3e43b734	0.19112855
12	0xbed48b5d	-0.41512576
13	0x3ec96919	0.39337996
14	0x3e350705	0.17678459
15	0xbc208829	-0.009798088
16	0x3d7a99d5	0.061181862
17	0x3e902f5e	0.28161138
18	0x3d8e7b7e	0.06957148
19	0x3ec2399b	0.37934574
20	0xbeb42d78	-0.3519094
21	0xbdc5816c	-0.09643826
22	0xbd8e4317	-0.0694639
23	0xbe824c2e	-0.25448745
24	0x3edf45cc	0.43607938
25	0x3e5abd79	0.2136134
26	0xbea5fc1e	-0.32418913
27	0xbeb08273	-0.34474525
28	0x3cb892c8	0.022530928
29	0x3e505531	0.20344998
30	0xbc3b63e6	-0.011437392
31	0x3e8f7cdf	0.28024957
32	0xbdc32d01	-0.09530068
33	0xbe111119	-0.14166678
34	0xbf1b8e28	-0.6076379
35	0x3e7c9abb	0.246684
36	0x3d2443d0	0.040103734
37	0x3da2aff8	0.079437196
38	0x3ce23c9e	0.027616795
39	0xbceeba21	-0.029141488
40	0x3eaba192	0.33521706
41	0xbea45156	-0.32093304
42	0x3e159905	0.14609154
43	0x3ed2ec66	0.41195983
44	0x3e7995e3	0.24373583
45	0xbee9ad07	-0.45639822
46	0x3dd9640f	0.10614788
47	0xbe0f7d74	-0.140127
48	0xb9c4cc4b	-0.00037536243
49	0xbd5579d6	-0.052118145
50	0x3df9903b	0.12185713
51	0xbca586a2	-0.0202058
52	0x3e5f590a	0.2181131
53	0xbd98f030	-0.07467687
54	0x3eaeef18	0.3416679
55	0x3e548181	0.20752527
56	0xbe954f4e	-0.29162067
57	0xbe2bb76b	-0.16769187
58	0xbed25b2e	-0.4108519
59	0xbdb61fad	-0.088927604
60	0xbebc4d65	-0.36777797
61	0xbd64099f	-0.055673238
62	0xbe25e4f9	-0.16200627
63	0x3dcc217c	0.09967324
64	0x3ec726e0	0.38896847
65	0xbe2a2f79	-0.16619672
66	0xbec31289	-0.3810008
67	0x3e1d2354	0.15345508
68	0x3e95b757	0.2924144
69	0x3e82e3b5	0.25564352
70	0xbe947801	-0.28997806
71	0x3e56cc41	0.20976354
72	0xbf08c8b9	-0.5343128
73	0xbef4ce0f	-0.4781346
74	0xbe036a41	-0.12833501
75	0xbeea1a0a	-0.4572299
76	0x3dd6dc57	0.10491245
77	0x3e884f4c	0.26623
78	0xbdbc107a	-0.0918283
79	0xbf009b03	-0.5023653
80	0x3d212ff7	0.039352383
81	0xbcc89d37	-0.024489028
82	0x3cdf8ae1	0.027287902
83	0xbea6f063	-0.32605276
84	0xbca5279f	-0.020160494
85	0xbcea159e	-0.028574761
86	0xbeb120a2	-0.3459521
87	0x3e86e000	0.26342773
88	0xbf15418f	-0.5830316
89	0xbeb4db6f	-0.35323665
90	0x3ec60bd0	0.38680887
91	0xbe3d7d5c	-0.18504852
92	0x3e603c9f	0.21898125
93	0x3e5f4c8c	0.21806544
94	0x3ea7b92a	0.32758456
95	0x3e0d6a67	0.1381012
96	0x3dbb2d88	0.09139544
97	0xbddf42f0	-0.10901439
98	0x3ebb831d	0.3662347
99	0xbee85ad1	-0.45381787
100	0x3efdc702	0.49565893
101	0x3e5016f6	0.20321259
102	0x3e9ff727	0.3124325
103	0xbd4378c8	-0.047722608
104	0xbe91f82b	-0.2850965
105	0x3ec989a7	0.39362833
106	0xbca52d18	-0.020163104
107	0x3e0465d4	0.1292947
108	0x3eab6925	0.33478656
109	0x3a8f5efa	0.0010938339
110	0xbec0d4cc	-0.3766235
111	0xbdd553a8	-0.10416347
112	0x3ebbc5e6	0.36674422
113	0xbf0426c4	-0.5162165
114	0x3dbd863a	0.09254117
115	0x3dacd979	0.08439917
116	0xbe8faf00	-0.28063202
117	0xbdcb2e7d	-0.09920976
118	0xbef4c6f3	-0.47808036
119	0xbdae91d7	-0.085239105
120	0xbe0ee99d	-0.13956304
121	0x3dd7ccab	0.10537084
122	0xbea15c6a	-0.3151582
123	0x3e95b10d	0.29236642
124	0x3ea3d9af	0.32002017
125	0x3d704efa	0.058669068
126	0xbeb6535d	-0.35610476
127	0x3ebfbdd8	0.37449527
128	0x3bee35e5	0.0072696083
129	0xbdac5158	-0.084139526
130	0x3ed59b32	0.41719967
131	0xbd75eeb5	-0.060042102
132	0xbdbf3924	-0.093370706
133	0x3f10482e	0.5636014
134	0xbf00095d	-0.5001429
135	0x3c409f1b	0.011756684
136	0xbdac7d3f	-0.08422326
137	0x3d826e0a	0.063686445
138	0xbcc1d214	-0.023659743
139	0x3ea9d572	0.33170658
140	0x3e0ab779	0.13546552
141	0x3d1ea0f4	0.038727716
142	0xbe9b7aea	-0.30367213
143	0x3e88decd	0.26732484
144	0x3d803d74	0.06261721
145	0xbec29284	-0.38002408
146	0x3e680211	0.22657038
147	0xbe1f936e	-0.15583584
148	0xbdc96830	-0.09834325
149	0xbee46de7	-0.446151
150	0xbe19ddf1	-0.1502607
151	0xbc84278f	-0.016132144
152	0x3e886392	0.26638466
153	0x3e952edb	0.2913731
154	0x3f03f34e	0.5154313
155	0x3e597ddf	0.21239422
156	0x3ed0785c	0.40716827
157	0x3ef84bbd	0.48495284
158	0x3edcca4f	0.431231
159	0xbea4071c	-0.32036674
160	0x3c192964	0.009348247
161	0x3ec73ac3	0.3891202
162	0x3e38084f	0.1797192
163	0x3ea3cd81	0.31992725
164	0xbd78910e	-0.06068521
165	0x3ede2b81	0.43392566
166	0xbd6d47cc	-0.0579298
167	0x3d251579	0.04030368
168	0xbe81bfd7	-0.25341675
169	0xbe8496c5	-0.25896278
170	0xbe84fffd	-0.25976554
171	0xbee13f3e	-0.43993562
172	0x3d74f8b7	0.059807505
173	0x3ea5ac36	0.3235795
174	0xbaefe9a4	-0.0018303883
175	0x3ea6ff5b	0.32616696
176	0x3eb4b989	0.35297802
177	0xbe1fadfa	-0.1559371
178	0x3ee585f9	0.44828776
179	0x3f0ac105	0.54200774
180	0xbc8f6248	-0.017502919
181	0xbf0c5f2e	-0.5483273
182	0xbda8386d	-0.08213887
183	0xbee78a55	-0.45222726
184	0xbe87241e	-0.26394743
185	0x3d028227	0.031862404
186	0x3ee584eb	0.4482797
187	0x3c3dec20	0.011591941
188	0xbef9e940	-0.48810768
189	0x3ea4d493	0.3219343
190	0xbd236dc5	-0.039899606
191	0xbeb5a02d	-0.35473767
192	0x3cb95359	0.022622751
193	0x3ee9f547	0.45694944
194	0x3e532656	0.20620093
195	0x3eb7f750	0.35930872
196	0xbe12500a	-0.14288345
197	0x3d141a34	0.0361578
198	0x3ee1a23e	0.44069093
199	0xbe235cf6	-0.1595343
200	0x3e9308ed	0.28717747
201	0x3e26471c	0.16238064
202	0xbe87321d	-0.2640542
203	0xbe24b804	-0.16085821
204	0x3b8a3ce9	0.004218687
205	0xbdcd2956	-0.1001765
206	0x3f0c533d	0.5481451
207	0xbe8aa437	-0.2707841
208	0xbc9a994d	-0.018871928
209	0xbdf0d0b8	-0.1175856
210	0x3edf3925	0.43598285
211	0xbd8d3334	-0.06894532
212	0x3c4e832a	0.012604514
213	0x3edcd732	0.4313293
214	0x3ed97b48	0.4247687
215	0x3e0be2d5	0.13660748
216	0x3ea83994	0.3285643
217	0xbe68977f	-0.22714041
218	0xbf161b39	-0.5863529
219	0xbe5e6e42	-0.21721748
220	0x3cdacee4	0.026709981
221	0x3e8e1ac1	0.27754787
222	0x3e4fac16	0.2028049
223	0xbece5efb	-0.4030684
224	0xbe59fe2f	-0.2128837
225	0x3d023b5a	0.031794883
226	0xbe73781d	-0.23776288
227	0x3d26fb16	0.040766798
228	0x3eb8f0dd	0.36121264
229	0xbd60bc3a	-0.054867007
230	0xbd650975	-0.055917222
231	0x3e63c2c9	0.22242273
232	0x3e5ced5e	0.21574923
233	0xbce56de1	-0.028006496
234	0xbd6cd84d	-0.057823468
235	0x3eb80548	0.3594153
236	0x3c88b34e	0.016687062
237	0xbf03c350	-0.514699
238	0x3d9e0c3d	0.07717178
239	0x3eb2c7ee	0.3491816
240	0x3e912c84	0.28354275
241	0xbe5a834e	-0.21339151
242	0x3edca0ef	0.43091533
243	0xbf05586d	-0.5208805
244	0xbe5e3e94	-0.21703559
245	0x3e8d67b7	0.2761819
246	0xbbd7665c	-0.0065734815
247	0xbe53f916	-0.20700487
248	0x3ec8e917	0.39240333
249	0x3e3fc0ff	0.18725966
250	0xbeb249c6	-0.3482191
251	0x3ea01620	0.3126688
252	0x3ec834b4	0.3910271
253	0x3c0e8c9d	0.008700517
254	0xbeaaf4a5	-0.33389774
255	0x3e96c913	0.29450282

linear2.bias f4 [3]
0	0x3e962c07	0.29330465
1	0x3e420fe5	0.18951376
2	0x3e5d15a0	0.2159028
